data.pth (torch, 6847 bytes, 6 tensors)

l1.weight f4 [8, 87]
000000 36 0b 6a be 72 b7 0a 3f d7 82 c6 be 4f 43 3b 3e
       -0.22855839 0.54186165 -0.38771698 0.18287395
000010 17 b2 17 be bd 4b 4b 3d a4 a5 1d be 77 ca 8a 3e
       -0.1481403 0.049632777 -0.15395218 0.27107593
000020 b1 aa 58 be 54 d0 b0 be 49 fb 9b be 0a ea 0f 3e
       -0.21158864 -0.34533942 -0.30465153 0.14054123
000030 d1 bf 30 3d 7b 54 25 3f 41 95 23 bf 87 0e 89 3f
       0.04315168 0.6458203 -0.6389962 1.0707558
000040 5f 48 57 3f 74 a2 5b 3e 23 89 5f be 0a 4a 45 be
       0.84094805 0.2144869 -0.21829657 -0.19266525
000050 fe 85 6c bf fd 12 57 3f 01 7a a4 3d 49 22 91 be
       -0.92391956 0.8401335 0.08031083 -0.2834647
000060 e0 09 f0 3e 14 d4 19 bf e4 8d 9d be 1d 50 e6 3c
       0.46882534 -0.6008923 -0.30772316 0.028114373
000070 a0 93 59 be cc e5 2c 3f 85 2b 72 3e 8c ae dc be
       -0.2124772 0.6753814 0.23649414 -0.4310192
000080 b2 37 7c bd 3c cc dc be 95 b4 dc be bd b8 dc be
       -0.061576553 -0.43124568 -0.43106523 -0.43109694
000090 ea b8 7c be dd 2a 90 3d f9 3a ae bd 4e 20 85 3e
       -0.24679914 0.070394255 -0.08507342 0.2600121
0000a0 4a 4f 78 3e 58 24 9b 3e 11 3e f8 be 27 53 34 3e
       0.24248996 0.30301166 -0.48484853 0.17609845
0000b0 54 ee b8 3e fe f5 cb 3e e9 73 9f 3e 38 a2 14 3e
       0.3611933 0.39836115 0.3114312 0.14515007
0000c0 b1 43 85 be b6 f3 70 3d 60 de 85 3e 62 54 8b 3d
       -0.26028207 0.05882617 0.2614622 0.06803204
0000d0 b2 b3 3a 3e 95 44 d6 3d ef b1 50 3e 3e af 85 3e
       0.18232611 0.104623 0.20380376 0.26110262
0000e0 13 de 11 be 14 3a 85 bc 1d 22 90 3f 44 97 55 bd
       -0.14244871 -0.016263045 1.126041 -0.05214621
0000f0 bc 6f 63 be 1b cd a2 3e fc 79 86 3f e8 34 8e 3e
       -0.22210592 0.31797108 1.0505977 0.2777474
000100 8d ac c1 be 64 93 0a 3e 18 da ba bc 41 7f e2 3e
       -0.37826958 0.13532788 -0.022809073 0.44237712
000110 ae 82 23 3f 3f dd 6a 3e 41 5b ed 3e e6 ab b5 be
       0.63871276 0.22935961 0.46358684 -0.3548271
000120 6f 0b e4 be c8 7a 39 3e c8 10 dc be e0 ab 10 be
       -0.44539973 0.18113244 -0.42981553 -0.14128065
000130 96 62 24 3f a0 9d a7 be e9 16 ac 3d a5 c2 12 bf
       0.6421293 -0.32737446 0.08402807 -0.57328254
000140 6f e2 6c 3e 95 d0 a7 3d 2b 76 fa 3e 71 6e 85 be
       0.23133253 0.08194081 0.4891828 -0.26060823
000150 06 cf a2 3e 39 37 e9 3d 84 d7 f8 3d 9b 47 22 3f
       0.3179857 0.11387486 0.12150481 0.6339051
000160 ee 85 b2 be 88 55 bc 3e 60 0f d0 3d ba ec a5 3e
       -0.34867805 0.36784005 0.101591825 0.3240717
000170 b6 95 5e 3f d7 72 f6 bd b6 e4 71 3f c7 7a 9b 3e
       0.8694719 -0.12033623 0.9448961 0.3036711
000180 83 eb 49 be e2 f4 03 bf f5 ac 34 3f e0 4f 91 3e
       -0.19718747 -0.51545537 0.7057641 0.28381252
000190 96 5f 8f 3f 3b 62 b5 3e 87 5b 79 3f 64 f5 5a 3f
       1.1201046 0.35426506 0.97405285 0.85530686
0001a0 da 3e d7 be ed 19 77 be 8f 63 ba bd be 15 85 be
       -0.4204014 -0.24130984 -0.091010205 -0.2599315
0001b0 55 f9 6d 3e eb e2 12 3f 7a 8d 00 3f 20 3d 57 be
       0.23239644 0.573775 0.50215876 -0.21019411
0001c0 2d 3c 1d bf a4 fb d6 3d d4 ac b4 be a6 01 c4 be
       -0.61419946 0.104972154 -0.35288107 -0.38282508
0001d0 02 3a 92 3f 3f eb 87 3f 9d c2 1f bf af a0 89 bc
       1.1423953 1.0618666 -0.6240633 -0.016800253
0001e0 40 d5 1f bf 4a ca 1f bf 8c a9 07 bf 61 52 da be
       -0.6243477 -0.62418044 -0.52993083 -0.42640975
0001f0 77 ba 92 bc 56 09 ef 3e 80 67 9e bd 91 69 ed bd
       -0.017911179 0.4668681 -0.07734585 -0.11592401
000200 4a 2c 4b be 15 1b 7e 3e 42 9e 55 3e 6b 0d ba 3e
       -0.19841114 0.24815018 0.20861152 0.36338362
000210 ae 4a 30 3f c8 87 b8 bd c2 84 1f bf 06 da f4 3e
       0.6886395 -0.09010273 -0.6231195 0.4782259
000220 b4 92 4f 3d 0c a5 80 3d ec 92 94 3e f5 6d 7d be
       0.050677016 0.0628148 0.29018342 -0.24748977
000230 55 7a 12 3d 19 2a 00 3e a0 d1 c1 3e b1 dc b6 3e
       0.035761196 0.12516059 0.37855244 0.3571525
000240 71 3f 6d 3e c3 76 0a be e5 27 2b bf ea c6 b6 3e
       0.23168732 -0.13521867 -0.6685775 0.35698634
000250 3e 10 03 bd b5 9a 93 3f 35 53 35 be 61 00 57 3e
       -0.03199791 1.1531588 -0.17707522 0.20996238
000260 c4 39 8e 3f b8 80 54 bd fb 14 90 3e 0e e6 b5 be
       1.1111379 -0.05188057 0.28141007 -0.3552708
000270 64 43 13 3f 90 74 32 3f 78 ee 03 3f ce 9d 01 3f
       0.57524705 0.6970911 0.5153575 0.50631416
000280 e3 e7 e4 3e a3 f1 8f 3f 82 fa 34 3f 2b 48 a5 be
       0.44708166 1.1245617 0.70694745 -0.32281622
000290 fd a5 9e be 96 99 ad 3e 0b 22 13 bf c8 b8 08 bd
       -0.30986014 0.3390624 -0.5747382 -0.033379346
0002a0 51 c9 10 3f 5d 63 49 3e 9e 11 8c 3e e9 59 0d 3e
       0.56557184 0.1966681 0.2735719 0.13803829
0002b0 c7 07 16 be ad 22 00 3f 27 8e 09 be 42 33 97 3e
       -0.14651404 0.5005291 -0.13433133 0.29531294
0002c0 f3 b6 0f 3f fb 26 2a be 7f 09 4e bc dc 07 f3 3d
       0.56138533 -0.16616432 -0.012575506 0.118667334
0002d0 ba 28 dc 3e 6c a6 9a be 6f f1 07 3d 4e 2a 81 be
       0.42999822 -0.30205095 0.033189233 -0.25227588
0002e0 c6 62 94 be 59 4c 94 bd ca b7 fd bd 39 e8 78 3f
       -0.28981608 -0.07241125 -0.123885706 0.97229344
0002f0 61 7c 50 be 6c c7 66 3f 82 80 46 3f fa 2a c5 3e
       -0.20359947 0.90148044 0.7753984 0.3850935
000300 94 26 ae be d8 f6 29 3f a8 73 4a bf a7 b2 fa 3d
       -0.34013808 0.6639228 -0.7908273 0.122411065
000310 eb cc 1f be 58 bf a8 bd fe 46 2e 3f d1 ca 56 3f
       -0.15605514 -0.08239621 0.68077075 0.83903223
000320 3e 50 58 3f d9 f5 4f 3f f1 eb 8f be 12 1b 7c 3f
       0.8449744 0.8123451 -0.28109697 0.98478806
000330 ad c6 84 be e5 0d 1f bf 9e be 72 3e 42 14 1f bf
       -0.25932828 -0.62130576 0.23705527 -0.62140286
000340 52 15 1f bf 30 2e 34 bf 2d 52 aa be 84 6d a8 3e
       -0.6214191 -0.70382977 -0.3326582 0.32896054
000350 1c f0 1c be 26 1d b4 3e d2 ea 89 3d c5 54 d8 be
       -0.1532597 0.35178488 0.067342415 -0.42252174
000360 ce 3b 85 3f ac 0b 25 3d d4 1f 06 3f aa d5 2e 3f
       1.0408876 0.040294334 0.52392316 0.68294775
000370 36 8e 03 3f b2 89 0f 3f 03 68 1c 3d a6 12 61 3c
       0.5138887 0.5606948 0.03818513 0.013737356
000380 32 6d a1 3e 3f cb a5 bd be de 05 3f fd d4 86 3e
       0.31528622 -0.08095407 0.52293 0.26334372
000390 38 72 e1 3e fd a7 d1 3e 28 ea 29 3d ff 29 40 3f
       0.44032454 0.40948477 0.041483074 0.7506408
0003a0 e8 78 5d bf e3 b5 18 3f a6 c6 a3 3c ab ac 2c 3f
       -0.86512613 0.5965254 0.019992184 0.6745097
0003b0 d8 08 17 3f c7 86 1b 3f b1 9b 08 3f 57 ab cd be
       0.5899787 0.6075253 0.53362566 -0.40169784
0003c0 e6 33 35 bd 9b 3f 4e 3f 48 56 97 3e b9 61 de 3e
       -0.044238947 0.80565804 0.29558015 0.4343393
0003d0 67 01 31 3f 4f 6e 74 bd 44 36 b6 3f 76 52 d6 3e
       0.69142765 -0.05967551 1.423531 0.41859788
0003e0 75 30 12 be 90 e0 8a be c9 08 40 3c 0c 70 de be
       -0.14276297 -0.27124453 0.011720845 -0.4344486
0003f0 e5 fe 01 3e 41 91 5a 3f 0f f3 b2 3d ed a4 86 bd
       0.12694891 0.8537789 0.08737766 -0.06574426

l1.bias f4 [8]
000000 d7 f6 db 3e 78 5a 1f 3f 00 a2 1e 3f 6a 76 07 3f
       0.4296176 0.6224742 0.6196594 0.5291506
000010 41 05 52 3f f7 f5 8c 3f 43 ee 59 3f dd 2e 4f 3f
       0.82039267 1.1012563 0.85129184 0.8093088

l2.weight f4 [8, 8]
000000 88 33 ef bb 06 8a c2 3e bd 04 2f bf 8f 86 bd be
       -0.007299844 0.3799593 -0.68366605 -0.37016723
000010 b3 54 47 3f 64 c0 9c bd a2 ed 2e 3f cc 9c c3 be
       0.77863616 -0.07653883 0.6833135 -0.38205564
000020 80 f4 2a bf 82 c6 82 3f d8 a4 10 3f 3d e7 2c bd
       -0.6677933 1.021683 0.5650153 -0.042212714
000030 de 04 7c bf 96 3c c3 3f 55 d9 51 bf ba b6 09 40
       -0.98444927 1.5252864 -0.8197225 2.1517777
000040 d9 44 e0 3e 64 c5 e0 3f a3 8a be 3f 4d 01 48 3f
       0.43802527 1.7560239 1.4886059 0.78126985
000050 a0 0c 91 be 09 fd b0 be 30 e9 be be 07 6c c3 3f
       -0.28329945 -0.3456805 -0.37287283 1.5267342
000060 d5 73 ca 3e 0d 13 d8 be 74 e7 f2 3f 2c 93 8b bc
       0.39541498 -0.42202035 1.8976884 -0.01703795
000070 93 2d 11 bf d9 d0 92 3f 58 72 08 3f 37 7e 4b bf
       -0.56710166 1.1469985 0.53299475 -0.79489464
000080 70 bd a0 be aa 99 8b 3e 75 fb e0 3f 11 97 c1 bf
       -0.3139453 0.27265674 1.7576739 -1.5124227
000090 48 76 aa bf 41 f5 5b 3f 04 7d b1 3e 06 5f 05 bf
       -1.3317347 0.859211 0.34665692 -0.5209812
0000a0 e5 ea e7 bf 6d 22 c1 bf dd 5c 86 3f 25 84 90 3e
       -1.8118559 -1.5088631 1.049709 0.28225818
0000b0 29 82 ed 3e 97 58 d1 3f 78 32 01 3f d2 e1 7c be
       0.46388367 1.635516 0.50467634 -0.24695519
0000c0 e2 51 11 40 bc 4f 92 3f 69 12 fe 3e ba 01 23 40
       2.2706227 1.1430583 0.4962342 2.5469804
0000d0 0e 66 d4 3f 03 91 72 bf 08 20 e3 3f 0a 14 bb be
       1.6593645 -0.9475252 1.774415 -0.36538726
0000e0 40 d7 8a bf 13 4f 03 be 10 72 26 bf 03 b0 ee be
       -1.0846939 -0.12823133 -0.65017796 -0.4661866
0000f0 53 f6 c9 3f 00 99 d8 3f 2c e3 b2 3d 7e 11 0a 3f
       1.5778297 1.6921692 0.08734736 0.5393294

l2.bias f4 [8]
000000 49 3e d8 3d 85 4f 59 3f 8d 00 69 bd 80 11 86 3e
       0.10558755 0.8488696 -0.05688529 0.26185226
000010 8c 51 66 bd 4a 70 07 3f 1d 9d b4 3e ee 67 2b 3f
       -0.056230113 0.52905715 0.35276118 0.6695546

l3.weight f4 [16, 8]
000000 e6 44 13 c0 02 4d f5 ba bd 8a 33 3f f3 b1 b6 3d
       -2.3010802 -0.0018714967 0.7013357 0.0892066
000010 03 13 10 c0 6b 17 c8 bf bb 82 1e 3e ed 9e 13 c0
       -2.2511604 -1.5632147 0.15479557 -2.306575
000020 75 88 b1 bf dc a1 19 be 83 f6 3c bf b0 65 cf bf
       -1.3869768 -0.1500315 -0.7381365 -1.6202908
000030 7d 29 91 bf 79 c0 44 3e 94 74 02 bd 8b 43 48 3f
       -1.1340786 0.19214047 -0.03184946 0.7822806
000040 04 ab 23 c0 55 c7 4a 3e 6f df 35 bf c3 a0 9e 3e
       -2.557313 0.19802602 -0.7104406 0.30982026
000050 6e 43 d2 3d 91 80 6b 3e d9 c5 7b bf 04 9a 29 3e
       0.102667674 0.22998263 -0.98348767 0.16562659
000060 fb 51 35 bf b5 3a d7 3e cc ae 08 3f 3b 31 83 3e
       -0.7082822 0.42036977 0.5339172 0.25623497
000070 95 8f 27 3d 07 37 18 c0 b5 7c 62 bf d6 ad 2a bf
       0.040908415 -2.3783586 -0.8847154 -0.666715
000080 30 a5 11 be ae 08 19 3f 7b 67 13 c0 bb bd c7 bd
       -0.1422317 0.5977887 -2.303191 -0.09752985
000090 25 86 03 c0 38 fa 53 3f a3 fb ee bf a5 d3 5b 3f
       -2.0550625 0.8280368 -1.8670543 0.8586982
0000a0 ac 85 89 3d db 23 82 be d0 0d 8b 3e 0f e2 23 c0
       0.06714949 -0.2541798 0.27158976 -2.5606725
0000b0 b6 1f d1 bf 87 8a f9 bf b9 74 ad 3e 1a 3a 71 3e
       -1.6337802 -1.94954 0.33878115 0.2355732
0000c0 9c d6 e1 bf c8 99 89 bf eb dd 88 bf c1 89 1f 3f
       -1.7643619 -1.0750055 -1.0692724 0.6231957
0000d0 8f 63 ee bf 70 bd 08 3f 8f 68 eb bc 56 84 5a 3e
       -1.8624133 0.5341406 -0.02873638 0.21339545
0000e0 cf bb 3c 3f 9c 00 04 c0 4b 26 f8 bf df 74 09 bf
       0.73724073 -2.0625372 -1.9386686 -0.53693956
0000f0 2f da 6c bf 64 10 e8 3e 03 6b df 3c 9e 65 31 3f
       -0.9252042 0.45325005 0.027272707 0.6929568
000100 13 5b 45 c0 18 1b 28 3f 62 20 41 be 56 e3 8a be
       -3.0836837 0.6566634 -0.1886001 -0.2712657
000110 6c c5 23 c0 97 b4 89 be 8b 3e 7c bf c4 b8 c6 3e
       -2.5589247 -0.26895592 -0.98532933 0.3881284
000120 1e 55 3e 3f ca 8c 17 c0 90 a3 26 bf b9 3b 25 bf
       0.7434863 -2.367968 -0.65093327 -0.64544255
000130 b6 a9 90 bf 42 87 c5 bf 2d a0 4f 3f bd e6 6c be
       -1.1301792 -1.5431902 0.81103784 -0.23134895
000140 b0 93 4a bf 4e cf 01 c0 70 59 18 3f e5 ce 92 bf
       -0.79131603 -2.0282779 0.5951147 -1.1469389
000150 f9 64 f6 bf 0d fd e7 bf e0 0d 54 3f 2d 02 bc bf
       -1.9249564 -1.81241 0.8283367 -1.4688164
000160 ea cc 10 c0 22 d8 9f bf e1 47 0c bf e5 90 14 3f
       -2.262507 -1.2487833 -0.5479718 0.5803359
000170 af e2 2c c0 4a 99 83 bd c6 64 1a 3f 9a c3 12 c0
       -2.7013357 -0.06425722 0.6031002 -2.2931886
000180 7b 82 19 bf f8 b7 9c 3e d0 00 25 3f b5 a1 b9 3e
       -0.5996472 0.30609107 0.64454365 0.36256185
000190 78 66 31 3e b2 e0 99 bc 79 0c 35 c0 7e d7 18 bf
       0.17324245 -0.0187839 -2.8288863 -0.59703815
0001a0 b3 7b 40 c0 c6 af 76 3f b7 39 f9 3e c1 a0 19 c0
       -3.00755 0.9636196 0.48676845 -2.4004366
0001b0 f9 aa 13 c0 b2 cf d6 bf 5c 59 d1 be 38 17 b4 be
       -2.3073103 -1.6782134 -0.40888488 -0.35173965
0001c0 7d ba c6 bf 14 5d 79 be cd 13 e4 bf 1c e3 78 3f
       -1.5525662 -0.24351913 -1.7818543 0.9722154
0001d0 be 7b 81 3f bc 91 ce 3e 84 8e c4 bf 72 67 63 bd
       1.0115888 0.40345562 -1.5355992 -0.055518575
0001e0 3d 66 97 bf 47 54 f2 be e5 07 cb be 2a f4 06 3f
       -1.1828076 -0.47329924 -0.3965446 0.52716315
0001f0 a8 18 37 3f a0 41 04 3f de 8c f3 bd 25 7c de bf
       0.71522 0.51662636 -0.11892103 -1.7381636

l3.bias f4 [16]
000000 04 cb 83 3d 94 c6 9e be 43 c0 68 be f9 7d a2 3e
       0.064352065 -0.31010878 -0.22729592 0.31736735
000010 eb 80 13 3f 36 55 ce bd d6 25 a7 be 4a ce 2d be
       0.5761859 -0.100748464 -0.32646054 -0.16973224
000020 23 73 d2 be 92 ca 03 3f 3f 40 db 3c 34 82 62 bc
       -0.41103467 0.5148097 0.026764033 -0.013824988
000030 68 3d e3 be ad cf f6 3e 96 0a 0e be a7 1e b4 be
       -0.44382787 0.4820532 -0.13871226 -0.35179636
